2022-01-08 04:07:50,735 - ===> loading train, validation and eval dataset
2022-01-08 04:08:06,602 - ### Model summary below###
 CDCK2(
  (encoder): Sequential(
    (0): Conv1d(1, 512, kernel_size=(10,), stride=(5,), padding=(3,), bias=False)
    (1): BatchNorm1d(512, eps=1e-05, momentum=0.1, affine=True, track_running_stats=True)
    (2): ReLU(inplace=True)
    (3): Conv1d(512, 512, kernel_size=(8,), stride=(4,), padding=(2,), bias=False)
    (4): BatchNorm1d(512, eps=1e-05, momentum=0.1, affine=True, track_running_stats=True)
    (5): ReLU(inplace=True)
    (6): Conv1d(512, 512, kernel_size=(4,), stride=(2,), padding=(1,), bias=False)
    (7): BatchNorm1d(512, eps=1e-05, momentum=0.1, affine=True, track_running_stats=True)
    (8): ReLU(inplace=True)
    (9): Conv1d(512, 512, kernel_size=(4,), stride=(2,), padding=(1,), bias=False)
    (10): BatchNorm1d(512, eps=1e-05, momentum=0.1, affine=True, track_running_stats=True)
    (11): ReLU(inplace=True)
    (12): Conv1d(512, 512, kernel_size=(4,), stride=(2,), padding=(1,), bias=False)
    (13): BatchNorm1d(512, eps=1e-05, momentum=0.1, affine=True, track_running_stats=True)
    (14): ReLU(inplace=True)
  )
  (gru): GRU(512, 256, batch_first=True)
  (Wk): ModuleList(
    (0): Linear(in_features=256, out_features=512, bias=True)
    (1): Linear(in_features=256, out_features=512, bias=True)
    (2): Linear(in_features=256, out_features=512, bias=True)
    (3): Linear(in_features=256, out_features=512, bias=True)
    (4): Linear(in_features=256, out_features=512, bias=True)
    (5): Linear(in_features=256, out_features=512, bias=True)
    (6): Linear(in_features=256, out_features=512, bias=True)
    (7): Linear(in_features=256, out_features=512, bias=True)
    (8): Linear(in_features=256, out_features=512, bias=True)
    (9): Linear(in_features=256, out_features=512, bias=True)
    (10): Linear(in_features=256, out_features=512, bias=True)
    (11): Linear(in_features=256, out_features=512, bias=True)
  )
  (softmax): Softmax(dim=None)
  (lsoftmax): LogSoftmax(dim=None)
)

2022-01-08 04:08:06,602 - ===> Model total parameter: 7423488

2022-01-08 04:08:06,735 - Train Epoch: 1 [0/281207 (0%)]	lr:0.00000	Accuracy: 0.0312	Loss: 10.195093
2022-01-08 04:08:15,761 - Train Epoch: 1 [3200/281207 (1%)]	lr:0.00014	Accuracy: 0.0156	Loss: 5.527138
2022-01-08 04:08:24,796 - Train Epoch: 1 [6400/281207 (2%)]	lr:0.00028	Accuracy: 0.0156	Loss: 4.228908
…
